…
Found 5712 files belonging to 4 classes.
Using 1142 files for validation.
Found 1311 files belonging to 4 classes.
Classes: ['glioma', 'meningioma', 'notumor', 'pituitary']
Training batches: 143
Validation batches: 36
Test batches: 41
Model: "brain_tumor_cnn"
_________________________________________________________________
 Layer (type)                Output Shape              Param #   
=================================================================
 input_1 (InputLayer)        [(None, 192, 192, 1)]     0         
                                                                 
 augmentation (Sequential)   (None, 192, 192, 1)       0         
                                                                 
 rescaling (Rescaling)       (None, 192, 192, 1)       0         
                                                                 
 conv2d (Conv2D)             (None, 192, 192, 32)      320       
                                                                 
 max_pooling2d (MaxPooling2  (None, 96, 96, 32)        0         
 D)                                                              
                                                                 
 conv2d_1 (Conv2D)           (None, 96, 96, 64)        18496     
                                                                 
 max_pooling2d_1 (MaxPoolin  (None, 48, 48, 64)        0         
 g2D)                                                            
                                                                 
 conv2d_2 (Conv2D)           (None, 48, 48, 128)       73856     
                                                                 
 max_pooling2d_2 (MaxPoolin  (None, 24, 24, 128)       0         
 g2D)                                                            
                                                                 
 conv2d_3 (Conv2D)           (None, 24, 24, 128)       147584    
                                                                 
 max_pooling2d_3 (MaxPoolin  (None, 12, 12, 128)       0         
 g2D)                                                            
                                                                 
 flatten (Flatten)           (None, 18432)             0         
                                                                 
 dense (Dense)               (None, 256)               4718848   
                                                                 
 dropout (Dropout)           (None, 256)               0         
                                                                 
 dense_1 (Dense)             (None, 128)               32896     
                                                                 
 dropout_1 (Dropout)         (None, 128)               0         
                                                                 
 dense_2 (Dense)             (None, 4)                 516       
                                                                 
=================================================================
Total params: 4992516 (19.04 MB)
Trainable params: 4992516 (19.04 MB)
Non-trainable params: 0 (0.00 Byte)
_________________________________________________________________

============================================================
MEDICAL PRIORITY WEIGHTS:
  Glioma (malignant):     3.0x weight - CRITICAL
…
